model/torch_model.pth (torch, 4336 bytes, 5 tensors)

weight_ih_l0 f4 [16, 1]
0	0xbe8dc484	-0.27688992
1	0xbdabb5f2	-0.08384313
2	0xbea33d2e	-0.31882614
3	0xbe88b6ed	-0.2670206
4	0xbdf48f85	-0.11941437
5	0xbe312129	-0.17297806
6	0xbeabf712	-0.33586937
7	0xbe44a9c3	-0.19205384
8	0xbe88053c	-0.26566494
9	0xbec59b35	-0.38594976
10	0x3d80a26e	0.06280981
11	0xbf172a6f	-0.59049124
12	0xbd74e248	-0.05978611
13	0xbdae3766	-0.0850666
14	0xbe7ed2c1	-0.24885084
15	0xbdb84f76	-0.08999531

weight_hh_l0 f4 [16, 4]
0	0x3e9d8647	0.30766508
1	0x3e9d326c	0.3070253
2	0xbf0f18a3	-0.5589697
3	0x3e0543fc	0.13014215
4	0x3f0f55da	0.55990374
5	0x3f5a83da	0.8535744
6	0xbf4364e9	-0.7632585
7	0x3e29a902	0.16568378
8	0xbe393749	-0.18087496
9	0x3db74624	0.08948925
10	0xbf366a17	-0.7125563
11	0x3ed59cab	0.4172109
12	0x3d54adaa	0.05192343
13	0x3ed5b6b9	0.4174097
14	0xbef7fdf6	-0.48435944
15	0xbd8c4e9a	-0.068509296
16	0xbe6ebca6	-0.23314151
17	0xbdda600a	-0.10662849
18	0x3c7aad92	0.015300171
19	0xbee762bb	-0.45192513
20	0x3e037562	0.12837747
21	0x3f3e8a29	0.74429566
22	0x3dda5115	0.106599964
23	0x3ecfc5d3	0.40580615
24	0xbbb5ab42	-0.005544097
25	0x3e5faf6f	0.21844266
26	0xbf3870f8	-0.72047377
27	0x3f0796c8	0.5296445
28	0x3f16c74c	0.5889785
29	0x3ec75309	0.38930538
30	0xbe786d2f	-0.242604
31	0xbb1f4f1d	-0.002430863
32	0x3d80411c	0.06262419
33	0xbf0e5eec	-0.5561359
34	0x3f3c4f68	0.73558664
35	0xbf0edfc3	-0.55810183
36	0x3f198207	0.5996403
37	0x3dfaeb3a	0.12251897
38	0x3eb6e7f8	0.35723853
39	0x3da3ca87	0.079976134
40	0xbe865ca9	-0.2624257
41	0xbf08eaa5	-0.5348304
42	0x3df07626	0.11741285
43	0x3d17dcb7	0.037075724
44	0x3e15dee0	0.14635801
45	0x3e9f73b1	0.31142953
46	0x3e1392cd	0.14411469
47	0x3f009d68	0.5024018
48	0x3e915827	0.28387567
49	0xbe0607bc	-0.13088888
50	0xb9da7a48	-0.00041671307
51	0x3e9f1a87	0.31074926
52	0x3df6aaed	0.1204432
53	0x3e7fc519	0.2497753
54	0xbdb15358	-0.08658475
55	0x3e8db530	0.27677298
56	0xbe09d9d9	-0.13462009
57	0x3f4d58e5	0.8021377
58	0xbe692393	-0.22767477
59	0x3eb734e3	0.35782537
60	0xbeadcf42	-0.33947188
61	0x3aad3e10	0.0013217349
62	0xbea98535	-0.3310944
63	0xbe027798	-0.12740934

bias_ih_l0 f4 [16]
0	0x3ed20b3f	0.41024205
1	0x3e7a8c3e	0.2446756
2	0x3eefbf22	0.4682551
3	0xbdacc149	-0.08435304
4	0xbe2090cd	-0.15680237
5	0x3d60f005	0.0549164
6	0xbe152f4d	-0.14568825
7	0xbda4bee8	-0.08044225
8	0xbe0f9686	-0.14022264
9	0x3d090133	0.03344841
10	0xbe7b8dbf	-0.2456579
11	0x3e48bc45	0.19603069
12	0xbe8b1879	-0.2716711
13	0xbdc11a55	-0.094288506
14	0x3f2f3855	0.6844533
15	0x3f0cce84	0.5500262

bias_hh_l0 f4 [16]
0	0xbd727e5d	-0.05920254
1	0xbdc31963	-0.095263265
2	0x3e9f1346	0.31069392
3	0xbde5f35b	-0.11228057
4	0xbd87c04b	-0.06628474
5	0x3eeb9fea	0.46020442
6	0xbe500c05	-0.20317085
7	0x3e96240c	0.29324377
8	0x3e993a37	0.29927227
9	0x3e0bf159	0.13666286
10	0xbd54abd7	-0.05192169
11	0x3e0de385	0.13856323
12	0x3e55f953	0.20895891
13	0x3f2d9e42	0.6781961
14	0x3e98170d	0.29705086
15	0x3e9d49e7	0.30720446

weight f4 [1, 4]
0	0x3e951978	0.29120994
1	0xbf0eb6e2	-0.5574781
2	0x3f41061b	0.7539994
3	0xbf12f958	-0.5741172
